…
Done loading data from cached files.
/usr/local/lib/python3.10/dist-packages/dgl/heterograph.py:3719: DGLWarning: DGLGraph.adjacency_matrix_scipy is deprecated. Please replace it with:

	DGLGraph.adjacency_matrix(transpose, scipy_fmt="csr").

  dgl_warning('DGLGraph.adjacency_matrix_scipy is deprecated. '
/content/gdrive/MyDrive/FinalProjectGNN/NAGphormer/utils.py:163: UserWarning: Casting complex values to real discards the imaginary part (Triggered internally at ../aten/src/ATen/native/Copy.cpp:299.)
  lap_pos_enc = torch.from_numpy(EigVec[:,1:pos_enc_dim+1]).float()
TransformerModel(
  (att_embeddings_nope): Linear(in_features=1448, out_features=512, bias=True)
  (layers): ModuleList(
    (0): EncoderLayer(
      (self_attention_norm): LayerNorm((512,), eps=1e-05, elementwise_affine=True)
      (self_attention): MultiHeadAttention(
        (linear_q): Linear(in_features=512, out_features=512, bias=True)
        (linear_k): Linear(in_features=512, out_features=512, bias=True)
        (linear_v): Linear(in_features=512, out_features=512, bias=True)
        (att_dropout): Dropout(p=0.1, inplace=False)
        (output_layer): Linear(in_features=512, out_features=512, bias=True)
      )
      (self_attention_dropout): Dropout(p=0.1, inplace=False)
      (ffn_norm): LayerNorm((512,), eps=1e-05, elementwise_affine=True)
      (ffn): FeedForwardNetwork(
        (layer1): Linear(in_features=512, out_features=1024, bias=True)
        (gelu): GELU(approximate='none')
        (layer2): Linear(in_features=1024, out_features=512, bias=True)
      )
      (ffn_dropout): Dropout(p=0.1, inplace=False)
    )
  )
  (final_ln): LayerNorm((512,), eps=1e-05, elementwise_affine=True)
  (out_proj): Linear(in_features=512, out_features=256, bias=True)
  (attn_layer): Linear(in_features=1024, out_features=1, bias=True)
  (Linear1): Linear(in_features=256, out_features=7, bias=True)
)
total params: 2979849
Epoch: 0001 loss_train: 1.9727 acc_train: 0.1156 loss_val: 1.9686 acc_val: 0.1310
Epoch: 0002 loss_train: 1.9669 acc_train: 0.1279 loss_val: 1.9561 acc_val: 0.1384
Epoch: 0003 loss_train: 1.9547 acc_train: 0.1396 loss_val: 1.9375 acc_val: 0.1587
Epoch: 0004 loss_train: 1.9373 acc_train: 0.1525 loss_val: 1.9130 acc_val: 0.2122
Epoch: 0005 loss_train: 1.9160 acc_train: 0.1925 loss_val: 1.8830 acc_val: 0.3118
…
